…
l1 = language_model_init(AutoModelForMaskedLM,\n                              'roberta-base')\n_model1\n\n/home/quan/anaconda3/envs/nlp_dev/lib/python3.10/site-packages/huggingface_hub/file_download.py:1132: FutureWarning: `resume_download` is deprecated and will be removed in version 1.0.0. Downloads always resume when possible. If you want to force a new download, use `force_download=True`.\n  warnings.warn(\n\n\nTotal parameters: 124697433\nTotal trainable parameters: 124697433\n\n\nRobertaForMaskedLM(\n  (roberta): RobertaModel(\n    (embeddings): RobertaEmbeddings(\n      (word_embeddings): Embedding(50265, 768, padding_idx=1)\n      (position_embeddings): Embedding(514, 768, padding_idx=1)\n      (token_type_embeddings): Embedding(1, 768)\n      (LayerNorm): LayerNorm((768,), eps=1e-05, elementwise_affine=True)\n      (dropout): Dropout(p=0.1, inplace=False)\n    )\n    (encoder): RobertaEncoder(\n      (layer): ModuleList(\n        (0-11): 12 x RobertaLayer(\n          (attention): RobertaAttention(\n            (self): RobertaSelfAttention(\n              (query): Linear(in_features=768, out_features=768, bias=True)\n              (key): Linear(in_features=768, out_features=768, bias=True)\n              (value): Linear(in_features=768, out_features=768, bias=True)\n              (dropout): Dropout(p=0.1, inplace=False)\n            )\n            (output): RobertaSelfOutput(\n              (dense): Linear(in_features=768, out_features=768, bias=True)\n              (LayerNorm): LayerNorm((768,), eps=1e-05, elementwise_affine=True)\n              (dropout): Dropout(p=0.1, inplace=False)\n            )\n          )\n          (intermediate): RobertaIntermediate(\n            (dense): Linear(in_features=768, out_features=3072, bias=True)\n            (intermediate_act_fn): GELUActivation()\n          )\n          (output): RobertaOutput(\n            (dense): Linear(in_features=3072, out_features=768, bias=True)\n            (LayerNorm): LayerNorm((768,), eps=1e-05, elementwise_affine=True)\n            (dropout): Dropout(p=0.1, inplace=False)\n          )\n        )\n      )\n    )\n  )\n  (lm_head): RobertaLMHead(\n    (dense): Linear(in_features=768, out_features=768, bias=True)\n    (layer_norm): LayerNorm((768,), eps=1e-05, elementwise_affine=True)\n    (decoder): Linear(in_features=768, out_features=50265, bias=True)\n  )\n)\n\n\n\n_model1 = language_model_init(AutoModelForMaskedLM,\n                              'nguyenvulebinh/envibert')\n_model1\n\nTotal parameters: 70764377\nTotal trainable parameters: 70764377\n\n\nRobertaForMaskedLM(\n  (roberta): RobertaModel(\n    (embeddings): RobertaEmbeddings(\n      (word_embeddings): Embedding(59993, 768, padding_idx=1)\n      (position_embeddings): Embedding(514, 768, padding_idx=1)\n      (token_type_embeddings): Embedding(1, 768)\n      (LayerNorm): LayerNorm((768,), eps=1e-05, elementwise_affine=True)\n      (dropout): Dropout(p=0.1, inplace=False)\n    )\n    (encoder): RobertaEncoder(\n      (layer): ModuleList(\n        (0-5): 6 x RobertaLayer(\n          (attention): RobertaAttention(\n            (self): RobertaSelfAttention(\n              (query): Linear(in_features=768, out_features=768, bias=True)\n              (key): Linear(in_features=768, out_features=768, bias=True)\n              (value): Linear(in_features=768, out_features=768, bias=True)\n              (dropout): Dropout(p=0.1, inplace=False)\n            )\n            (output): RobertaSelfOutput(\n              (dense): Linear(in_features=768, out_features=768, bias=True)\n              (LayerNorm): LayerNorm((768,), eps=1e-05, elementwise_affine=True)\n              (dropout): Dropout(p=0.1, inplace=False)\n            )\n          )\n          (intermediate): RobertaIntermediate(\n            (dense): Linear(in_features=768, out_features=1024, bias=True)\n            (intermediate_act_fn): GELUActivation()\n          )\n          (output): RobertaOutput(\n            (dense): Linear(in_features=1024, out_features=768, bias=True)\n            (LayerNorm): LayerNorm((768,), eps=1e-05, elementwise_affine=True)\n            (dropout): Dropout(p=0.1, inplace=False)\n          )\n        )\n      )\n    )\n  )\n  (lm_head): RobertaLMHead(\n    (dense): Linear(in_features=768, out_features=768, bias=True)\n    (layer_norm): LayerNorm((768,), eps=1e-05, elementwise_affine=True)\n    (decoder): Linear(in_features=768, out_features=59993, bias=True)\n  )\n)\n\n\n\n_model2 = language_model_init(AutoModelForCausalLM,\n                              'gpt2')\n_model2\n\nTotal parameters: 124439808\nTotal trainable parameters: 124439808\n\n\nGPT2LMHeadModel(\n  (transformer): GPT2Model(\n    (wte): Embedding(50257, 768)\n    (wpe): Embedding(1024, 768)\n    (drop): Dropout(p=0.1, inplace=False)\n    (h): ModuleList(\n      (0-11): 12 x GPT2Block(\n        (ln_1): LayerNorm((768,), eps=1e-05, elementwise_affine=True)\n        (attn): GPT2Attention(\n          (c_attn): Conv1D()\n          (c_proj): Conv1D()\n          (attn_dropout): Dropout(p=0.1, inplace=False)\n          (resid_dropout): Dropout(p=0.1, inplace=False)\n        )\n        (ln_2): LayerNorm((768,), eps=1e-05, elementwise_affine=True)\n        (mlp): GPT2MLP(\n          (c_fc): Conv1D()\n          (c_proj): Conv1D()\n          (act): NewGELUActivation()\n          (dropout): Dropout(p=0.1, inplace=False)\n        )\n      )\n    )\n    (ln_f): LayerNorm((768,), eps=1e-05, elementwise_affine=True)\n  )\n  (lm_head): Linear(in_features=768, out_features=50257, bias=False)\n)\n\n\n\nsource\n\n\nfinetune_lm\n\n finetune_lm (lr, bs, wd, epochs, ddict, tokenizer, o_dir='./tmp_weights',\n              save_checkpoint=False, model=None, model_init=None,\n              data_collator=None, compute_metrics=None,\n              grad_accum_steps=2, lr_scheduler_type='cosine',\n              warmup_ratio=0.1, no_valid=False, val
…
\": true,\n      \"max_length\": 50\n    }\n  },\n  \"transformers_version\": \"4.40.1\",\n  \"use_cache\": true,\n  \"vocab_size\": 50257\n}\n\n\n\n_model = language_model_init(AutoModelForCausalLM,\n                             config=_config,\n                             cpoint_path=None, # leave this as None to get a non-pretrained model\n                             seed=42\n                            )\n\nInitiate a new language model from scratch\nTotal parameters: 124439808\nTotal trainable parameters: 124439808\n\n\n\n_model\n\nGPT2LMHeadModel(\n  (transformer): GPT2Model(\n    (wte): Embedding(50257, 768)\n    (wpe): Embedding(1024, 768)\n    (drop): Dropout(p=0.1, inplace=False)\n    (h): ModuleList(\n      (0-11): 12 x GPT2Block(\n        (ln_1): LayerNorm((768,), eps=1e-05, elementwise_affine=True)\n        (attn): GPT2Attention(\n          (c_attn): Conv1D()\n          (c_proj): Conv1D()\n          (attn_dropout): Dropout(p=0.1, inplace=False)\n          (resid_dropout): Dropout(p=0.1, inplace=False)\n        )\n        (ln_2): LayerNorm((768,), eps=1e-05, elementwise_affine=True)\n        (mlp): GPT2MLP(\n          (c_fc): Conv1D()\n          (c_proj): Conv1D()\n          (act): NewGELUActivation()\n          (dropout): Dropout(p=0.1, inplace=False)\n        )\n      )\n    )\n    (ln_f): LayerNorm((768,), eps=1e-05, elementwise_affine=True)\n  )\n  (lm_head): Linear(in_features=768, out_features=50257, bias=False)\n)\n\n\n\n_model = resize_model_embeddings(_model,_tokenizer)\n\nCreate a model controller\n\ncontroller = ModelLMController(_model,data_store=tdc,seed=42)\n\nAnd we can start training our model\n\nlr = 1e-4\nbs=32\nwd=0.01\nepochs= 3\nwarmup_ratio=0.25\ncontroller.fit(epochs,lr,\n               batch_size=bs,\n               weight_decay=wd,\n     
…
nceClassification from the checkpoint of a model trained on another task or with another architecture (e.g. initializing a BertForSequenceClassification model from a BertForPreTraining model).\n- This IS NOT expected if you are initializing RobertaBaseForSequenceClassification from the checkpoint of a model that you expect to be exactly identical (initializing a BertForSequenceClassification model from a BertForSequenceClassification model).\n\n\n\ntrained_model\n\nRobertaBaseForSequenceClassification(\n  (body_model): RobertaModel(\n    (embeddings): RobertaEmbeddings(\n      (word_embeddings): Embedding(59993, 768, padding_idx=1)\n      (position_embeddings): Embedding(514, 768, padding_idx=1)\n      (token_type_embeddings): Embedding(1, 768)\n      (LayerNorm): LayerNorm((768,), eps=1e-05, elementwise_affine=True)\n      (dropout): Dropout(p=0.1, inplace=False)\n    )\n    (encoder): RobertaEncoder(\n      (layer): ModuleList(\n        (0-5): 6 x RobertaLayer(\n          (attention): RobertaAttention(\n            (self): RobertaSelfAttention(\n              (query): Linear(in_features=768, out_features=768, bias=True)\n              (key): Linear(in_features=768, out_features=768, bias=True)\n              (value): Linear(in_features=768, out_features=768, bias=True)\n              (dropout): Dropout(p=0.1, inplace=False)\n            )\n            (output): RobertaSelfOutput(\n              (dense): Linear(in_features=768, out_features=768, bias=True)\n              (LayerNorm): LayerNorm((768,), eps=1e-05, elementwise_affine=True)\n              (dropout): Dropout(p=0.1, inplace=False)\n            )\n          )\n          (intermediate): RobertaIntermediate(\n            (dense): Linear(in_features=768, out_features=1024, bias=True)\n            (intermediate_act_fn): GELUActivation()\n          )\n          (output): RobertaOutput(\n            (dense): Linear(in_features=1024, out_features=768, bias=True)\n            (LayerNorm): LayerNorm((768,), eps=1e-05, elementwise_affine=True)\n            (dropout): Dropout(p=0.1, inplace=False)\n          )\n        )\n      )\n    )\n  )\n  (classification_head): SimpleClassificationHead(\n    (dropout): Dropout(p=0.1, inplace=False)\n    (out_proj): Linear(in_features=768, out_features=10, bias=True)\n  )\n)\n\n\n\nmetric_funcs = [partial(f1_score,average='macro'),accuracy_score] # we will use both f1_macro and accuracy score as metrics\ncontroller = ModelController(trained_model,tdm,metric_funcs)\n\n\n\nPredict Train/Validation set\nMake prediction on all validation set\n\ndf_val = controller.predict_ddict(ds_type='validation')\n\n-----------------
…
